pretrained_models/best_audio_model.pth (torch, 141140 bytes, 70 tensors)

module.pos_embed f4 [1, 133, 24]
0.0 0.1 0.0 0.1 0.0 0.1 0.0 0.1
0.0 0.1 0.0 0.1 0.0 0.1 0.0 0.1
0.0 0.1 0.0 0.1 0.0 0.1 0.0 0.1
0.084147096 0.05403023 0.044767085 0.08941984 0.021378068 0.09768817 0.009983341 0.09950042
0.0046399226 0.0998923 0.002154268 0.0999768 0.0009999833 0.099995 0.0004641572 0.09999892
0.0002154433 0.09999977 9.999998e-05 0.09999996 4.6415887e-05 0.09999999 2.1544347e-05 0.1
0.09092974 -0.041614685 0.08006131 0.059918165 0.041767683 0.09085957 0.019866934 0.09800666
0.00926985 0.099569425 0.004307536 0.09990718 0.0019998667 0.099980004 0.00092830445 0.099995695
0.00043088562 0.09999907 0.00019999988 0.0999998 9.283177e-05 0.09999996 4.3088694e-05 0.09999999
0.014112 -0.098999254 0.09841432 0.017737616 0.0602261 0.079829924 0.029552022 0.095533654
0.01387981 0.09903207 0.006458805 0.0997912 0.0029995502 0.09995501 0.0013924317 0.0999903
0.00064632593 0.099997915 0.00029999958 0.099999554 0.00013924761 0.099999905 6.463304e-05 0.09999998
-0.07568025 -0.06536436 0.09594254 -0.02819627 0.07589987 0.065109216 0.038941834 0.0921061
0.018459873 0.0982814 0.0086070765 0.0996289 0.0039989334 0.09992001 0.0018565288 0.09998276
0.0008617632 0.09999629 0.00039999894 0.099999204 0.00018566345 0.09999983 8.617738e-05 0.099999964
-0.09589243 0.028366221 0.073169015 -0.06816374 0.08806428 0.047378074 0.047942556 0.08775826
0.023000171 0.09731903 0.010751353 0.09942036 0.004997917 0.099875025 0.0023205862 0.099973075
0.0010771964 0.099994205 0.0004999979 0.09999875 0.00023207923 0.09999973 0.00010772172 0.09999994
-0.02794155 0.096017025 0.0349127 -0.09370754 0.0961569 0.027456328 0.05646425 0.08253356
0.027490927 0.09614702 0.012890639 0.09916568 0.0059964005 0.099820055 0.0027845935 0.09996122
0.0012926249 0.09999164 0.0005999964 0.0999982 0.000278495 0.099999614 0.00012926605 0.09999992
0.06569866 0.07539023 -0.010731249 -0.09942254 0.09980355 0.0062650987 0.064421766 0.076484226
0.031922467 0.094767906 0.015023941 0.098864965 0.0069942847 0.0997551 0.0032485407 0.09994722
0.0015080472 0.09998863 0.0006999943 0.09999755 0.00032491065 0.09999947 0.00015081037 0.09999989
0.09893583 -0.014550003 -0.054104436 -0.084099405 0.09883562 -0.015215809 0.07173561 0.06967067
0.036285244 0.093184665 0.017150272 0.098518364 0.007991469 0.09968018 0.003712418 0.09993107
0.0017234624 0.099985145 0.0007999915 0.0999968 0.00037132626 0.09999931 0.00017235469 0.09999985
0.04121185 -0.09111302 -0.086028956 -0.05098058 0.09329786 -0.03599319 0.07833269 0.062161
0.040569857 0.0914007 0.019268641 0.09812604 0.008987855 0.09959527 0.0041762153 0.099912755
0.0019388698 0.0999812 0.0008999879 0.099995956 0.00041774177 0.09999913 0.000193899 0.09999981
-0.054402113 -0.08390715 -0.09974947 -0.0070741014 0.08344632 -0.055106368 0.084147096 0.05403023
0.044767085 0.08941984 0.021378068 0.09768817 0.009983341 0.09950042 0.0046399226 0.0998923
00000000: 0000 0000 cdcc cc3d 0000 0000 cdcc cc3d
00000010: 0000 0000 cdcc cc3d 0000 0000 cdcc cc3d
00000020: 0000 0000 cdcc cc3d 0000 0000 cdcc cc3d
00000030: 0000 0000 cdcc cc3d 0000 0000 cdcc cc3d
00000040: 0000 0000 cdcc cc3d 0000 0000 cdcc cc3d
00000050: 0000 0000 cdcc cc3d 0000 0000 cdcc cc3d
00000060: 5055 ac3d cd4e 5d3d b15d 373d c021 b73d
00000070: 0f21 af3c bc10 c83d 2b91 233c e0c6 cb3d
00000080: 7e0a 983b 5694 cc3d 9f2e 0d3b a3c0 cc3d
00000090: df11 833a 2eca cc3d 205a f339 3ccc cc3d
000000a0: 9fe8 6139 aecc cc3d 15b7 d138 c7cc cc3d
000000b0: aeae 4238 cbcc cc3d 22ba b437 cdcc cc3d
000000c0: 5f39 ba3d 2974 2abd 2ff7 a33d c06c 753d
000000d0: 9714 2b3d 9514 ba3d fbbf a23c b7b7 c83d
000000e0: 92e0 173c 0eeb cb3d 3b26 8d3b 239c cc3d
000000f0: 3210 033b 51c2 cc3d 7559 733a 8bca cc3d
00000100: 7de8 e139 50cc cc3d 0fb7 5139 b2cc cc3d
00000110: adae c238 c7cc cc3d 22ba 3438 cbcc cc3d
00000120: 0536 673c 1fc0 cabd 728d c93d 7a4e 913c
00000130: a5af 763d df7d a33d 1517 f23c 26a7 c33d
00000140: 2568 633c 53d1 ca3d 62a4 d33b 545f cc3d
00000150: 1a94 443b 36b5 cc3d 4182 b63a b7c7 cc3d
00000160: 336e 293a b5cb cc3d 4349 9d39 91cc cc3d
00000170: ff02 1239 c0cc cc3d 998b 8738 cacc cc3d
00000180: 3ffe 9abd c0dd 85bd 867d c43d ddfb e6bc
00000190: 6471 9b3d fb57 853d 7981 1f3d 1fa2 bc3d
000001a0: 2939 973c c247 c93d b204 0d3c 3d0a cc3d
000001b0: 7c09 833b dda2 cc3d c556 f33a c3c3 cc3d
000001c0: f3e7 613a dbca cc3d f3b6 d139 62cc cc3d
000001d0: a7ae 4239 b6cc cc3d 21ba b438 c8cc cc3d
000001e0: 4063 c4bd 4760 e83c a3d9 953d 6e99 8bbd
000001f0: 0c5b b43d 830f 423d 6a5f 443d 9aba b33d
00000200: db6a bc3c 334f c73d 7126 303c e79c cb3d
00000210: 91c5 a33b 478b cc3d fa14 183b afbe cc3d
00000220: b730 8d3a c3c9 cc3d 4b12 033a 25cc cc3d
00000230: 4b5a 7339 a9cc cc3d a8e8 e138 c5cc cc3d
00000240: ade5 e4bc 93a4 c43d 9f00 0f3d bde9 bfbd
00000250: e9ed c43d 18ec e03c 0f47 673d 5b07 a93d
00000260: a734 e13c bbe8 c43d 4233 533c 6017 cb3d
00000270: 747d c43b 756e cc3d ba7d 363b 78b8 cc3d
00000280: 4b6d a93a 6bc8 cc3d 1449 1d3a dbcb cc3d
00000290: f702 9239 99cc cc3d 978b 0739 c2cc cc3d
000002a0: 058d 863d 3166 9a3d 1fd2 2fbc 0b9e cbbd
000002b0: ce65 cc3d 754b cd3b 8fef 833d c3a3 9c3d
000002c0: 22c1 023d ad15 c23d fa26 763c b779 ca3d
000002d0: 5030 e53b 674c cc3d 78e5 543b 21b1 cc3d
000002e0: aba9 c53a d7c6 cc3d d37f 373a 84cb cc3d
000002f0: c558 aa39 86cc cc3d da22 1e39 becc cc3d
00000300: de9e ca3d 2363 6ebc 9d9c 5dbd 4f3c acbd
00000310: 546a ca3d bb4b 79bc 1fea 923d 7faf 8e3d
00000320: d69f 143d 9ad7 be3d ba7e 8c3c ffc3 c93d
00000330: a7ee 023c 1f25 cc3d 0a4c 733b a9a8 cc3d
00000340: cde5 e13a 03c5 cc3d 85b6 513a 1fcb cc3d
00000350: 91ae c239 70cc cc3d 1cba 3439 b9cc cc3d
00000360: c2cd 283d 7799 babd f32f b0bd 03d1 50bd
00000370: f312 bf3d 986d 13bd e46c a03d 889c 7e3d
00000380: 942c 263d 4a30 bb3d 45d9 9d3c 4ef6 c83d
00000390: cc41 133c 9bf8 cb3d a2d8 883b 0f9f cc3d
000003a0: ad21 fe3a f2c2 cc3d 2aed 6b3a aeca cc3d
000003b0: 5a04 db39 58cc cc3d 5e51 4b39 b3cc cc3d
000003c0: c0d4 5ebd 83d7 abbd 7349 ccbd ddcd e7bb
000003d0: e7e5 aa3d 37b7 61bd 5055 ac3d cd4e 5d3d
000003e0: b15d 373d c021 b73d 0f21 af3c bc10 c83d
000003f0: 2b91 233c e0c6 cb3d 7e0a 983b 5694 cc3d

module.cls_token1 f4 [1, 1, 24]
0.006193384 -0.020378727 0.0031423324 0.049580563 0.0264835 -0.03176958 0.034620006 -0.00023984241
0.005472437 0.01291537 0.068906486 -0.016538009 -0.04573928 0.011176202 -0.055419456 0.046091042
0.024423886 0.025109572 -0.10159393 -0.053877924 0.045067124 0.06708734 -0.044664692 0.021656923
00000000: dff1 ca3b 4af1 a6bc 97ef 4d3b fd14 4b3d
00000010: edf3 d83c d220 02bd b5cd 0d3d 357e 7bb9
00000020: 2152 b33b fd9a 533c d81e 8d3d b87a 87bc
00000030: 1c59 3bbd 641c 373c 83ff 62bd f6c9 3c3d
00000040: 9a14 c83c 97b2 cd3c 7a10 d0bd 19af 5cbd
00000050: 4e98 383d 1665 893d 53f2 36bd dc69 b13c

module.cls_token2 f4 [1, 1, 24]
0.0103042275 0.02439272 -0.044655707 -0.038923606 -0.034884077 -0.039417166 -0.09323937 0.19095597
-0.017940369 -0.013657665 0.031263325 0.022109197 0.072286375 0.036700953 -0.053281557 -0.02709016
-0.032965068 -0.048479673 -0.030353418 0.056045514 0.029360758 -0.04555917 0.081393115 0.066094935
00000000: 10d3 283c 3ed3 c73c e7e8 36bd 5c6e 1fbd
00000010: 9be2 0ebd e573 21bd 48f4 bebd f689 433e
00000020: aef7 92bc 66c4 5fbc f90d 003d 591e b53c
00000030: e10a 943d bd53 163d c33d 5abd 2fec ddbc
00000040: 6106 07bd 9f92 46bd bba7 f8bc fb8f 653d
00000050: f985 f03c 419c 3abd 6fb1 a63d c85c 873d

module.cls_token3 f4 [1, 1, 24]
0.020107096 -0.029060423 0.030197911 0.018124064 0.021736363 0.002741781 0.028212113 -0.036697607
0.028980318 0.048463378 -0.009803927 -0.056127086 -0.09593484 0.0036432678 0.049196173 0.026507827
-0.031473078 -0.007849456 -0.019272715 -0.044817764 -0.0074090743 -0.020064907 0.054239098 0.0055326642
00000000: a3b7 a43c 2010 eebc 9c61 f73c eb78 943c
00000010: 7510 b23c 74af 333b 171d e73c 3b50 16bd
00000020: 2268 ed3c 8981 463d a6a0 20bc 84e5 65bd
00000030: 7c79 c4bd e4c3 6e3b ed81 493d f126 d93c
00000040: eae9 00bd 019b 00bc d0e1 9dbc d592 37bd
00000050: d2c7 f2bb 295f a4bc d129 5e3d 5a4b b53b

module.cls_token4 f4 [1, 1, 24]
0.01470437 0.023867942 -0.004703386 0.029513659 -0.0060075107 -0.033688884 -0.027149482 -0.011646785
0.019934949 0.023812851 -0.007350396 0.009475894 -0.036814272 0.0017204973 0.04322354 -0.060344834
0.0022915036 -0.010383487 0.0053404765 -0.010157494 -0.057155762 -0.029029336 0.0067077274 0.056221846
00000000: 99ea 703c b486 c33c dd1e 9abb a1c6 f13c
00000010: a7da c4bb 5bfd 09bd 9768 debc 28d2 3ebc
00000020: 9e4e a33c 2b13 c33c 97db f0bb c840 1b3c
00000030: 90ca 16bd 4f82 e13a 2b0b 313d 252c 77bd
00000040: 0d2d 163b 801f 2abc 2aff ae3b 9e6b 26bc
00000050: 291c 6abd eece edbc 7fcc db3b e148 663d

module.cls_token5 f4 [1, 1, 24]
0.06112991 -0.04300594 0.015695093 0.01782632 0.004093273 0.01987349 0.03671869 -0.06496835
0.018051593 0.03119904 0.01573543 0.053158037 -0.031434346 0.027260989 0.002218689 -0.034294013
-0.01365802 0.027190294 -0.041578446 -0.002935266 0.013753909 0.042997543 -0.14402601 0.0792346
00000000: 5b63 7a3d ff26 30bd ff92 803c 8108 923c
00000010: dd20 863b bbcd a23c 5666 163d 200e 85bd
00000020: efe0 933c 2195 ff3c 97e7 803c 3ebc 593d
00000030: 4dc1 00bd 7052 df3c 6d67 113b e177 0cbd
00000040: e3c5 5fbc 2ebe de3c 294e 2abd 975d 40bb
00000050: 1358 613c 311e 303d 8e7b 13be c045 a23d

module.blocks.0.norm1.weight f4 [24]
1.0272146 0.9980207 0.9756721 1.0059706 1.0184575 0.9855243 0.9657438 1.0146772
0.9717302 0.9853737 0.9986232 0.97002965 0.97912055 0.9790953 1.0349503 0.9928749
0.9722815 0.9861135 0.98979354 0.9886112 0.95516163 0.9979494 1.0018419 1.0042933
00000000: c57b 833f 497e 7f3f a6c5 793f a5c3 803f
00000010: d15c 823f 524b 7c3f fc3a 773f f1e0 813f
00000020: 4fc3 783f 7341 7c3f c5a5 7f3f dd53 783f
00000030: a5a7 7a3f fda5 7a3f 4079 843f 0d2d 7e3f
00000040: 71e7 783f ef71 7c3f 1c63 7d3f a015 7d3f
00000050: 7985 743f 9d79 7f3f 5b3c 803f af8c 803f

module.blocks.0.norm1.bias f4 [24]
0.014020885 -0.014628252 0.0053960034 -0.006954867 -0.021939006 -0.01285952 0.01598609 0.002170098
-0.03186804 0.02477634 0.004172679 0.02095731 0.003975992 -0.0075053913 -0.0256589 -0.009903764
0.04051029 -0.012213448 -0.005393141 -0.011440709 0.00091450394 0.005832893 -0.014522432 0.008878939
00000000: dbb7 653c 56ab 6fbc f5d0 b03b a7e5 e3bb
00000010: 6eb9 b3bc bcb0 52bc 43f5 823c 3438 0e3b
00000020: 1088 02bd c0f7 ca3c f8ba 883b aaae ab3c
00000030: 0a49 823b c9ef f5bb 9d32 d2bc 6643 22bc
00000040: 1eee 253d ea1a 48bc f2b8 b0bb d071 3bbc
00000050: 52bb 6f3a da21 bf3b 7fef 6dbc f878 113c

module.blocks.0.attn.qkv.weight f4 [72, 24]
-0.1015178 0.1846467 -0.04972391 0.13600737 -0.12531595 0.15962356 -0.09393586 0.1079455
0.032502554 0.060984567 -0.1018492 -0.0030601565 0.073134005 0.003882533 0.19291426 -0.1649551
0.20595244 -0.017966956 0.048849054 0.04817226 -0.0967887 0.020846087 0.09845002 -0.17651975
-0.16035043 -0.054584846 -0.16765499 -0.1433393 -0.010672486 -0.20946534 0.06392264 0.115275554
-0.18155111 0.18407404 0.15247236 0.060139764 0.018427238 -0.045137856 0.11982591 0.12845975
-0.05600149 0.06259032 0.17660038 -0.18292207 0.14028902 -0.18094745 -0.021305794 -0.047221884
0.039216388 0.15679455 -0.24187912 -0.054439355 0.053908024 -0.0662775 0.017146908 0.115524456
0.103812575 -0.067656256 -0.05474634 -0.21423507 -0.09829564 0.12485144 -0.03680086 0.010532394
-0.018464321 -0.23448335 0.12992395 0.1480752 0.22164378 -0.21175203 0.18547921 -0.1465421
-0.12396955 0.0077049946 -0.14286645 0.12853855 -0.005449364 0.14012335 -0.094416074 0.088792905
0.13956529 0.19181032 0.03407061 0.05054187 0.022824794 -0.09966303 -0.06979415 -0.07181991
0.13300438 0.059989534 -0.038527463 -0.07759968 -0.060232062 0.20012379 -0.11496965 0.20778
0.06955921 -0.22024176 -0.00043153708 0.0054514576 -0.08813829 0.21937257 0.06877846 -0.15431355
-0.05333427 0.22576916 0.124060884 0.094801106 -0.0011627488 -0.05547301 -0.21910581 0.058627486
0.14246733 -0.10785818 0.033950817 -0.10174424 -0.061977997 0.19084388 -0.09659454 0.22107764
-0.11413241 -0.052401382 0.1659336 -0.1322633 -0.06954726 -0.059035055 0.20853399 -0.12469464
-0.045493342 -0.1345238 0.2388166 -0.0075310157 -0.08381476 0.00829165 0.16392063 -0.082393624
-0.119410515 -0.11451244 0.15940613 -0.23627335 0.19728413 0.100036114 -0.07327631 0.029887905
0.24039614 0.043855794 0.049070157 -0.043054692 0.026678447 0.045995258 -0.16681145 0.19357716
0.1405085 0.04571859 0.07399094 -0.022358932 0.029619705 -0.049590934 0.15091635 -0.06942031
0.12536709 -0.028574783 0.07490022 0.12256719 -0.09132881 -0.03216533 0.22248776 0.104237415
-0.05250663 0.16435759 -0.17256789 -0.049848787 -0.10109737 -0.13930577 -0.117384985 -0.09905514
0.16759004 -0.027582007 0.032273266 -0.1987035 -0.058173325 0.07903835 0.14074063 -0.11315341
-0.013513849 0.18222536 -0.09240129 0.15799198 0.103929795 0.2463037 -0.092033476 0.044816338
-0.08352561 0.004326925 0.049346086 -0.17213282 0.0055067353 0.03426519 -0.16788287 -0.025992991
-0.19821681 -0.06444394 -0.20285968 0.11458673 -0.24166116 0.27099678 -0.007817654 -0.13365002
-0.004503143 -0.037934378 -0.032160792 -0.020166976 0.14100851 0.06522668 -0.17062685 0.008250198
-0.0554838 0.22216208 -0.09945198 -0.11112694 0.18850866 0.13263711 0.016817873 -0.072124064
-0.028151745 -0.1600686 -0.004025056 0.122311905 0.20211689 0.026258253 0.17708123 -0.2400137
0.20744093 -0.00063396315 0.16648811 -0.20955303 0.09122194 -0.21506132 0.2450276 0.16864176
0.063254274 0.094932765 0.026329966 -0.10073912 0.14808494 -0.052287515 -0.00952581 0.06449158
0.08918372 0.05545756 -0.032653283 -0.019743083 0.05724039 -0.09336536 -0.16558275 0.029501509
00000000: 90e8 cfbd 0614 3d3e 4cab 4bbd 8445 0b3e
00000010: d352 00be 5c74 233e 7261 c0bd 8812 dd3d
00000020: 6621 053d f4ca 793d 5096 d0bd e88c 48bb
00000030: 48c7 953d 1872 7e3b 518b 453e fde9 28be
00000040: 32e5 523e 702f 93bc f215 483d 4750 453d
00000050: 2739 c6bd 6ac5 aa3c 2aa0 c93d 98c1 34be
00000060: e732 24be 5c94 5fbd c0ad 2bbe 8ac7 12be
00000070: a7db 2ebc 157e 56be e0e9 823d 9715 ec3d
00000080: 89e8 39be e87d 3c3e b721 1c3e 1d55 763d
00000090: b8f4 963c 79e2 38bd 4967 f53d f48a 033e
000000a0: d261 65bd 5b2f 803d bbd6 343e ec4f 3bbe
000000b0: eda7 0f3e 4a4a 39be 7d89 aebc bc6b 41bd
000000c0: 5da1 203d c08e 203e 29af 77be cdfb 5ebd
000000d0: a9ce 5c3d 7fbc 87bd ac77 8c3c 1698 ec3d
000000e0: b09b d43d 5d8f 8abd b33d 60bd 7060 5bbe
000000f0: 394f c9bd 1db2 ff3d 80bc 16bd 1090 2c3c
00000100: 7d42 97bc 671c 70be c90a 053e 06a1 173e
00000110: 96f6 623e 86d5 58be 43ee 3d3e 220f 16be
00000120: bfe3 fdbd 2e7a fc3b 954b 12be 9c9f 033e
00000130: 9490 b2bb 7f7c 0f3e 375d c1bd 0ed9 b53d
00000140: 34ea 0e3e ed69 443e a08d 0b3d fe04 4f3d
00000150: 10fb ba3c 211c ccbd 3cf0 8ebd 5116 93bd
00000160: 4d32 083e 96b7 753d f9ce 1dbd 95ec 9ebd
00000170: e5b5 76bd 40ed 4c3e 3575 ebbd 48c4 543e
00000180: 0f75 8e3d 0e87 61be ed3f e2b9 24a2 b23b
00000190: d981 b4bd 34a3 603e b9db 8c3d 5f04 1ebe
000001a0: 0975 5abd 0830 673e a213 fe3d 1527 c23d
000001b0: 6067 98ba ab37 63bd 465d 60be 6023 703d
000001c0: f5e2 113e c0e4 dcbd 0310 0b3d 495f d0bd
000001d0: a4dc 7dbd 946c 433e 5cd3 c5bd 2d62 623e
000001e0: 41be e9bd d5a2 56bd 7fea 293e 0870 07be
000001f0: cb6e 8ebd bece 71bd ef89 553e e75f ffbd
00000200: 3a57 3abd 9bc0 09be 578c 743e bdc6 f6bb
00000210: 13a7 abbd b3d9 073c cfda 273e fdbd a8bd
00000220: 808d f4bd 8085 eabd 5c3b 233e a4f1 71be
00000230: da04 4a3e bcdf cc3d e411 96bd 7bd7 f43c
00000240: 682a 763e 22a2 333d cafd 483d 1e5a 30bd
00000250: c28c da3c 8665 3c3d 9fd0 2abe 1739 463e
00000260: 76e1 0f3e 6b43 3b3d 9088 973d 142a b7bc
00000270: 06a5 f23c dd1f 4bbd d189 1a3e 3c2c 8ebd
00000280: 3b60 003e aa15 eabc 4965 993d 8204 fb3d
00000290: 990a bbbd cbbf 03bd d5d3 633e 6d7a d53d
000002a0: 3111 57bd 5b4d 283e a3b5 30be 3e2e 4cbd
000002b0: 230c cfbd 2ca6 0ebe 8a67 f0bd 6cdd cabd
000002c0: b99c 2b3e a9f3 e1bc f930 043d ee78 4bbe
000002d0: 2747 6ebd dcde a13d 501e 103e fabc e7bd
000002e0: 3169 5dbc 4999 3a3e e33c bdbd a6c8 213e
000002f0: 25d9 d43d 0a37 7c3e 0c7c bcbd 5691 373d
00000300: 7a0f abbd e1c8 8d3b 1f1f 4a3d 9643 30be
00000310: d871 b43b a859 0c3d 7de9 2bbe 41ef d4bc
00000320: 59f9 4abe 2ffb 83bd 73ba 4fbe 73ac ea3d
00000330: 0676 77be 17c0 8a3e 9e15 00bc 8ddb 08be
00000340: 1a8f 93bb 1461 1bbd 09bb 03bd 3735 a5bc
00000350: 8964 103e 9195 853d ceb8 2ebe d72b 073c
00000360: fb42 63bd 757e 633e 7bad cbbd 8596 e3bd
00000370: 6a08 413e 06d2 073e a3c5 893c c8b5 93bd
00000380: 7d9e e6bc 06e9 23be 9ee4 83bb aa7e fa3d
00000390: bbf7 4e3e 8c1b d73c c854 353e 27c6 75be
000003a0: 656b 543e 8c30 26ba dc7b 2a3e 1295 56be
000003b0: 92d2 ba3d 0939 5cbe 84e8 7a3e 6db0 2c3e
000003c0: 758b 813d 1c6c c23d f1b1 d73c 5050 cebd
000003d0: 94a3 173e 6f2b 56bd 2512 1cbc 2914 843d
000003e0: f4a5 b63d 7727 633d 73bf 05bd 3fbc a1bc
000003f0: e674 6a3d 5636 bfbd 868e 29be 26ad f13c

module.blocks.0.attn.proj.weight f4 [24, 24]
-0.04745541 0.094970234 -0.19311339 0.06709386 -0.10189341 -0.022711955 -0.031930353 -0.2042557
-0.18680643 0.0886426 0.12893318 -0.006274 0.091323644 -0.05631524 0.0708543 0.023428537
0.062423732 -0.1265765 -0.012798481 0.119353205 0.15983509 -0.1513676 -0.060424794 0.031779163
-0.28654802 0.15704219 -0.051875222 -0.15371697 -0.071485706 0.02716897 0.13193208 -0.17067756
0.11702454 0.05310258 -0.070623145 -0.11780528 -0.16710992 0.006996669 0.1485315 0.14903346
0.22196665 0.2169283 -0.15219083 -0.16525719 -0.051514138 -0.13246004 -0.0075204596 -0.14353324
0.16383813 0.19140293 0.15511736 -0.19001172 -0.063702635 -0.18874793 0.114608735 -0.10504147
-0.15461916 -0.040368553 0.018743848 -0.10702172 0.15664643 -0.0688686 -0.17552964 0.15674667
-0.11538013 0.09531109 0.13590474 0.20780034 0.17123085 -0.16874637 0.07596006 -0.17774528
0.18187398 0.09393995 -0.039293382 0.13075353 0.16164401 0.08677616 -0.15493111 -0.1504066
0.04839766 -0.015796646 -0.18857078 -0.11082909 -0.18842359 0.016738003 0.041148957 -0.027147673
-0.1416753 -0.15895161 0.18904376 0.110955305 -0.01149065 -0.055225417 0.07030356 0.042462718
-0.08429113 0.13009919 0.16586067 0.16797559 0.08412865 -0.08419356 -0.12971641 -0.0018879416
-0.18740755 -0.117445216 0.017075285 -0.012215189 0.18909945 -0.13446096 0.0968646 -0.14681767
-0.060895532 0.08720542 -0.048628826 -0.13552101 0.20500176 -0.12593116 0.0778549 -0.0624107
-0.09681122 0.101213105 0.10927493 -0.090375625 -0.0801925 -0.06624334 0.16421516 -0.05686113
0.07757347 -0.18759292 0.044273715 0.048745483 -0.19024056 -0.0022185296 0.14457896 0.0069303666
0.09581077 -0.05374911 0.0016885096 0.1698227 -0.12906979 -0.02040642 0.17233752 0.09562388
0.104138955 -0.05110365 0.06863455 -0.026619144 0.109842904 0.069328606 -0.008956745 0.22868882
0.13770624 0.009834831 0.1638448 0.0651369 0.19107142 -0.21119179 0.06868909 0.15886539
0.051958412 0.12558317 0.08155172 0.02412777 -0.05064296 0.13445929 -0.11167106 -0.06907847
-0.12500378 0.13485152 -0.011001729 0.057316158 -0.045020223 0.13478096 0.011727564 -0.0503938
0.12980966 -0.0943277 0.06964104 -0.021481538 -0.0052823042 0.055729005 0.032546975 0.06327331
0.108540736 0.044221558 0.15692951 -0.05355783 -0.09728399 -0.15500018 0.10744739 0.068285815
-0.12889463 0.06828484 -0.049931187 -0.048832823 -0.19277136 -0.089504234 -0.097160354 0.06519267
-0.15809694 -0.17336874 -0.09666928 -0.16078846 0.17669564 -0.039671473 -0.15236455 -0.21065392
0.049110185 0.15654895 -0.1268901 -0.06803923 -0.08912962 0.16655985 -0.17751928 -0.018229596
-0.03846572 -0.06719738 0.18191251 -0.1503985 0.020006968 -0.066305384 0.09394607 0.17551392
-0.0910939 0.12683049 0.039649032 0.12962145 0.18265168 0.14927419 0.19337113 -0.01706817
0.030872192 0.0773683 -0.08876512 -0.06410994 -0.08497601 -0.14123617 0.14945182 0.14919727
0.14678857 0.17084238 0.16190785 -0.012307535 0.15920603 0.07928645 0.14010847 -0.0776045
-0.1224768 -0.07850814 0.041316144 -0.052724708 0.006082323 -0.016827755 -0.023943838 -0.14284413
00000000: 9b60 42bd c17f c23d 84bf 45be 8168 893d
00000010: 7ead d0bd 6c0e babc 67c9 02bd 6828 51be
00000020: 2f4a 3fbe 408a b53d 0f07 043e 2096 cdbb
00000030: e407 bb3d cfaa 66bd 0f1c 913d 34ed bf3c
00000040: 07b0 7f3d 459d 01be b8b0 51bc 746f f43d
00000050: cfab 233e 1c00 1bbe fd7f 77bd de2a 023d
00000060: 6cb6 92be abcf 203e 1d7b 54bd fb67 1dbe
00000070: 1967 92bd 7691 de3c 3419 073e 19c6 2ebe
00000080: 90aa ef3d 1782 593d dea2 90bd e543 f1bd
00000090: dd1e 2bbe 5044 e53b a418 183e 3a9c 183e
000000a0: 3a4b 633e 7422 5e3e ead7 1bbe 2e39 29be
000000b0: 7d00 53bd 9ba3 07be 306e f6bb 61fa 12be
000000c0: 2fc5 273e 21ff 433e 16d7 1e3e 6f92 42be
000000d0: 8776 82bd 2347 41be fcb7 ea3d fb1f d7bd
000000e0: 7c54 1ebe 7f59 25bd b38c 993c 342e dbbd
000000f0: ec67 203e fb0a 8dbd 0bbe 33be 3382 203e
00000100: 6b4c ecbd 7632 c33d 9d2a 0b3e 9dc9 543e
00000110: 2457 2f3e d9cb 2cbe f390 9b3d dc02 36be
00000120: 2c3d 3a3e 9763 c03d 19f2 20bd 41e4 053e
00000130: 0286 253e b3b7 b13d 43a6 1ebe 3004 1abe
00000140: a03c 463d f867 81bc b318 41be 5dfa e2bd
00000150: 1df2 40be 231e 893c cf8b 283d cc64 debc
00000160: 5413 11be 36c4 22be b094 413e 893c e33d
00000170: 4743 3cbc 0c34 62bd 50fb 8f3d 63ed 2d3d
00000180: d4a0 acbd b938 053e 61d7 293e cb01 2c3e
00000190: a44b ac3d ac6d acbd 61d4 04be cf74 f7ba
000001a0: c4e7 3fbe 1e87 f0bd 78e1 8b3c 3722 48bc
000001b0: 49a3 413e 22b0 09be f360 c63d 5f57 16be
000001c0: 986d 79bd c198 b23d 052f 47bd 05c6 0abe
000001d0: fbeb 513e 19f4 00be 6472 9f3d 5da2 7fbd
000001e0: f644 c6bd d148 cf3d 89cb df3d db16 b9bd
000001f0: f73b a4bd 97aa 87bd 0528 283e 37e7 68bd
00000200: d7de 9e3d 5c18 40be 5b58 353d 58a9 473d
00000210: 6cce 42be c064 11bb 820c 143e 2118 e33b
00000220: 7038 c43d 0728 5cbd fb50 dd3a 00e6 2d3e
00000230: df2a 04be 5d2b a7bc 3f79 303e 74d6 c33d
00000240: ce46 d53d 1052 51bd 4590 8c3d 6410 dabc
00000250: 51f5 e03d 28fc 8d3d 50bf 12bc 672d 6a3e
00000260: dd02 0d3e 4522 213c eec6 273e 7f66 853d
00000270: 3aa8 433e a942 58be deac 8c3d 9cad 223e
00000280: 58d2 543d e098 003e 9704 a73d 9aa7 c53c
00000290: fe6e 4fbd b2af 093e ccb3 e4bd 0379 8dbd
000002a0: fe00 00be 8416 0a3e 9940 34bc 59c4 6a3d
000002b0: 2067 38bd 0504 0a3e f824 403c bb69 4ebd
000002c0: d3ec 043e e22e c1bd f69f 8e3d 0dfa afbc
000002d0: 2e17 adbb 1944 643d fa4f 053d 7095 813d
000002e0: 9b4a de3d aa21 353d 21b2 203e 755f 5bbd
000002f0: d43c c7bd 5eb8 1ebe 610d dc3d 6fd9 8b3d
00000300: f4fc 03be ecd8 8b3d a584 4cbd ed04 48bd
00000310: db65 45be ff4d b7bd 02fc c6bd bc83 853d
00000320: 2ae4 21be 9387 31be 8bfa c5bd bba5 24be
00000330: b4ef 343e 8e7e 22bd 7405 1cbe a9b5 57be
00000340: c327 493d 5e4e 203e 7aef 01be 2758 8bbd
00000350: 9789 b6bd aa8e 2a3e 9dc7 35be 3c56 95bc
00000360: 3b8e 1dbd c89e 89bd 4647 3a3e 1002 1abe
00000370: a7e5 a33c 1ecb 87bd cc66 c03d ecb9 333e
00000380: 708f babd dadf 013e 0667 223d 7cbb 043e
00000390: 0b09 3b3e 55db 183e 1503 463e 8cd2 8bbc
000003a0: aee7 fc3c 4573 9e3d 7dca b5bd 124c 83bd
000003b0: e707 aebd 37a0 10be e609 193e 2bc7 183e
000003c0: be4f 163e 4ef1 2e3e 2ccb 253e 8ba5 49bc
000003d0: e806 233e ef60 a23d 9878 0f3e 1cef 9ebd
000003e0: 1ed5 fabd e0c8 a0bd 1e3b 293d ddf5 57bd
000003f0: 394e c73b 5cda 89bc de25 c4bc bb45 12be

module.blocks.0.attn.proj.bias f4 [24]
0.007099607 0.007506034 0.20817006 0.0015492319 -0.15309235 0.025267323 -0.02186874 0.09436283
0.028604379 -0.06461556 0.07439742 -0.16670619 -0.19294432 0.06712892 -0.14712633 -0.0855864
-0.18783472 0.16591056 0.09322056 -0.1631995 -0.18360132 0.082561396 0.115278594 0.18262917
00000000: d2a3 e83b 2df5 f53b 882a 553e 990f cb3a
00000010: 3ec4 1cbe 6bfd ce3c 1226 b3bc 4d41 c13d
00000020: bb53 ea3c 2a55 84bd ad5d 983d 07b5 2abe
00000030: 3293 45be e37a 893d 49a8 16be ec47 afbd
00000040: bf57 40be 75e4 293e 6cea be3d c51d 27be
00000050: fc01 3cbe f315 a93d 2f17 ec3d 2403 3b3e

module.blocks.0.norm2.weight f4 [24]
0.9900123 0.9841914 0.9791383 1.011475 1.0095572 1.0013968 0.99697 1.0778462
0.9804573 1.0116694 1.0112418 0.99763155 0.97240084 1.0365686 1.0180134 1.0074981
0.9945796 1.0116111 1.0656358 0.9857488 1.0151541 1.0428966 1.0271156 1.0052724
00000000: 7271 7d3f f8f3 7b3f cfa8 7a3f 0378 813f
00000010: 2c39 813f c52d 803f 6d39 7f3f ddf6 893f
00000020: 40ff 7a3f 627e 813f 5f70 813f c864 7f3f
00000030: 43ef 783f 48ae 843f 434e 823f b3f5 803f
00000040: c59c 7e3f 797c 813f c166 883f 095a 7c3f
00000050: 92f0 813f a37d 853f 8678 833f c4ac 803f

module.blocks.0.norm2.bias f4 [24]
0.015692055 -0.032441277 -0.016669394 -0.0017925615 0.022452325 0.00155943 0.013127669 -0.0007201393
-0.019924443 -0.008705577 0.016054759 0.039296225 -0.017487964 0.037583567 -0.0150682675 -0.0070096585
0.0012627194 0.019107172 -0.011423378 -0.021639155 -0.03403732 0.008940876 -0.006517025 0.022828477
00000000: a08c 803c 25e1 04bd 418e 88bc 62f4 eaba
00000010: f0ed b73c ca65 cc3a 6f15 573c bbc7 3cba
00000020: 9638 a3bc d6a1 0ebc 4585 833c 14f5 203d
00000030: eb42 8fbc 3af1 193d e5e0 76bc 47b1 e5bb
00000040: d581 a53a a586 9c3c 1f29 3bbc 9944 b1bc
00000050: b86a 0bbd c17c 123c c58c d5bb c902 bb3c

module.blocks.0.mlp.fc1.weight f4 [96, 24]
-0.17151524 -0.0056430153 -0.11807342 -0.06457346 0.20583445 -0.009620627 -0.094618835 0.08278311
-0.17361394 0.2208179 -0.05710869 -0.08146626 -0.09328148 -0.1800189 -0.0447409 -0.0730843
-0.09879947 -0.032124374 0.0683849 -0.02851071 0.2119193 0.0764139 0.13440795 0.0019371295
-0.20561256 0.022950443 0.14330849 0.08566704 0.1553724 0.1669256 -0.013530873 0.17804837
-0.08643055 0.058070444 0.04673189 -0.005679831 -0.14335817 -0.23706508 0.19043428 -0.0905177
-0.12944521 0.056582235 0.017492857 0.0034869197 -0.17960137 -0.11769531 0.27552417 0.0711416
-0.040791932 0.014301498 0.16074376 -0.102562144 -0.174122 -0.09325899 0.04874128 0.18513098
0.012234395 -0.07824435 0.017416602 -0.04952585 0.2015909 0.03560606 0.08985113 0.1337127
0.017534167 -0.18172769 -0.14440472 0.08174153 -0.024487088 0.053644273 -0.09602072 -0.10186193
-0.10969335 0.14299943 -0.123507716 -0.08298702 -0.18729489 -0.16360623 -0.17755747 0.1762709
-0.12128854 0.06658034 0.04447189 0.041968074 0.0023786207 0.04375139 -0.045356534 0.107180044
-0.07256516 -0.009231706 0.03692182 -0.08315487 -0.21052933 -0.07962636 0.13810939 -0.06858367
0.035824724 -0.19624771 0.14376819 0.1452929 0.20498917 -0.01281411 0.047394555 -0.18906778
0.049021676 -0.17954887 -0.10566904 0.11506024 -0.14405815 0.12914953 0.12526466 -0.20278443
0.21129696 -0.20756611 0.041710652 -0.1875148 0.038733758 -0.15286006 0.16224717 0.07823345
-0.039150912 0.05506587 -0.18374595 0.09066277 -0.031233128 -0.030601723 0.0380782 -0.07647762
0.04767237 -0.13564919 -0.11986813 0.076311596 0.14146839 0.03798804 -0.20584644 -0.11146268
-0.031264815 0.07503377 0.13866696 -0.05575872 -0.1582922 -0.07967723 0.24088642 0.14222334
-0.14620124 0.06736035 0.10456897 -0.040139426 0.037776105 -0.1338477 -0.106821135 0.089090474
0.07334402 -0.19653107 0.037177853 0.029816257 0.16294722 -0.12567927 0.17420296 0.0500307
0.08539404 0.12014666 0.06423315 0.18668522 -0.14486368 -0.1708233 -0.038357873 -0.04314207
0.12863675 -0.12198184 -0.029028185 -0.17403987 -0.0016172888 -0.17583975 0.08574149 -0.0025670615
0.13818291 -0.014434605 -0.1648948 -0.13138726 -0.13759175 -0.13644214 -0.030661022 0.05127379
-0.029332208 0.14090678 -0.015109666 -0.19713019 -0.017737545 -0.1096834 0.10100121 -0.08359885
-0.015711648 0.03226525 0.14553618 0.079537354 -0.0889031 0.12967071 -0.172617 -0.13872504
-0.095105186 0.02222189 -0.087341845 0.17116192 0.11778652 0.111547574 -0.07181742 0.136283
0.09014259 -0.03371331 -0.054067675 0.011090332 0.05711359 0.035307936 0.07071227 -0.041191455
0.08741572 -0.15871105 0.1762092 0.008867773 -0.114798956 -0.06301853 -0.02046031 -0.04034533
-0.18821548 -0.098750554 -0.09084965 0.17942953 -0.029103437 0.115940034 -0.12063889 0.20344894
0.022719648 -0.041779466 -0.16938728 0.13573064 0.037146587 0.20339528 -0.2138837 -0.039317764
-0.15273315 0.016784191 0.057269417 -0.11973792 -0.1491186 -0.069035925 -0.10696195 0.13536625
0.013421734 0.10552904 0.14009352 0.120747834 -0.17305379 0.15776227 0.19053078 0.064098
00000000: b1a1 2fbe 0be9 b8bb 7ad0 f1bd 173f 84bd
00000010: 44c6 523e d69f 1dbc 85c7 c1bd 318a a93d
00000020: dac7 31be 161e 623e cdea 69bd c8d7 a6bd
00000030: 5c0a bfbd e056 38be 3c42 37bd 39ad 95bd
00000040: 6057 cabd d994 03bd 620d 8c3d 4b8f e9bc
00000050: 5f01 593e e47e 9c3d 3da2 093e 48e7 fd3a
00000060: 198c 52be 9102 bc3c 76bf 123e 3372 af3d
00000070: f119 1f3e 8bee 2a3e 98b0 5dbc 5052 363e
00000080: 8002 b1bd 46db 6d3d f069 3f3d e01d babb
00000090: 7ccc 12be 30c1 72be 3401 433e 5861 b9bd
000000a0: 498d 04be c6c2 673d 2e4d 8f3c ce84 643b
000000b0: 6ce9 37be 3d0a f1bd 8111 8d3e b0b2 913d
000000c0: 7115 27bd d550 6a3c 039a 243e 1a0c d2bd
000000d0: 0a4d 32be 92fe bebd f0a4 473d fa92 3d3e
000000e0: c672 483c 933e a0bd 43ad 8e3c 9edb 4abd
000000f0: d86d 4e3e a9d7 113d df03 b83d fbeb 083e
00000100: d0a3 8f3c d316 3abe d5de 13be 1a68 a73d
00000110: 2599 c8bc 19ba 5b3d 83a6 c4bd fd9c d0bd
00000120: e8a6 e0bd 716e 123e 9df1 fcbd 19f5 a9bd
00000130: 3bca 3fbe 6488 27be a0d1 35be 5c80 343e
00000140: 2066 f8bd 465b 883d 2828 363d b7e6 2b3d
00000150: a2e2 1b3b a834 333d c6c7 39bd 3681 db3d
00000160: 0b9d 94bd 9540 17bc 563b 173d 1a4d aabd
00000170: 0095 57be 2513 a3bd 8c6c 0d3e 9875 8cbd
00000180: f2bc 123d 29f5 48be f837 133e a9c7 143e
00000190: aee8 513e 46f2 51bc cb20 423d fc9a 41be
000001a0: f4ca 483d a9db 37be 0269 d8bd b4a4 eb3d
000001b0: fb83 13be c63f 043e 6145 003e b9a6 4fbe
000001c0: 3b5e 583e 368c 54be cad8 2a3d e103 40be
000001d0: 4aa7 1e3d 5987 1cbe 1f24 263e dc38 a03d
000001e0: b55c 20bd c08c 613d e627 3cbe 67ad b93d
000001f0: 9edc ffbc 77b0 fabc e3f7 1b3d 4ca0 9cbd
00000200: 1a44 433d 9fe7 0abe 6c7d f5bd 4149 9c3d
00000210: 17dd 103e 5999 1b3d 69c9 52be 8c46 e4bd
00000220: 890f 00bd 4eab 993d b6fe 0d3e 4163 64bd
00000230: 5a17 22be d12d a3bd eeaa 763e ffa2 113e
00000240: c7b5 15be 39f4 893d 4228 d63d 3d69 24bd
00000250: 1ebb 1a3d 5f0f 09be 0ac5 dabd 1175 b63d
00000260: 6435 963d 713f 49be ce47 183d 3941 f43c
00000270: a3db 263e 11b2 00be 4362 323e feec 4c3d
00000280: 12e3 ae3d 740f f63d ab8c 833d 692a 3f3e
00000290: 2557 14be 4eec 2ebe 251d 1dbd bdb5 30bd
000002a0: 5ab9 033e 9dd1 f9bd 84cc edbc 8237 32be
000002b0: 35fb d3ba 560f 34be 3c99 af3d 253c 28bb
000002c0: d27f 0d3e 1f7f 6cbc 2fda 28be 628a 06be
000002d0: dae4 0cbe 7db7 0bbe d32c fbbc 7704 523d
000002e0: 194a f0bc de49 103e 888e 77bc 7fdc 49be
000002f0: 544e 91bc b1a1 e0bd b9d9 ce3d e035 abbd
00000300: b7b5 80bc 9128 043d 7007 153e 7be4 a23d
00000310: d412 b6bd 66c8 043e 83c2 30be f00d 0ebe
00000320: 82c6 c2bd ae0a b63c 48e0 b2bd 1245 2f3e
00000330: 0f3a f13d 0e73 e43d 0315 93bd c58d 0b3e
00000340: ae9c b83d f816 0abd 1176 5dbd 39b4 353c
00000350: f1ef 693d 0e9f 103d 98d1 903d 5fb8 28bd
00000360: 0307 b33d 2685 22be 2f70 343e 234a 113c
00000370: b71b ebbd dc0f 81bd 619c a7bc 2541 25bd
00000380: 8fbb 40be bb3d cabd 620f babd 60bc 373e
00000390: 556a eebc f871 ed3d 8611 f7bd eb54 503e
000003a0: 8e1e ba3c f220 2bbd dc73 2dbe f9fc 0a3e
000003b0: 0527 183d da46 503e 5404 5bbe aa0b 21bd
000003c0: 1466 1cbe 007f 893c 5693 6a3d 2839 f5bd
000003d0: 8cb2 18be b562 8dbd de0e dbbd 739d 0a3e
000003e0: d5e6 5b3c 9c1f d83d ad74 0f3e a44a f73d
000003f0: 0335 31be 6f8c 213e 801a 433e d045 833d

module.blocks.0.mlp.fc1.bias f4 [96]
-0.15970108 0.023448555 0.115886845 0.11932925 -0.097824775 0.11617229 -0.13265993 0.03494607
0.0052852957 0.13662794 0.071653925 0.092205465 -0.017053166 0.18724835 -0.01952825 0.15736844
-0.03229218 0.09269998 -0.0955873 0.038768522 0.16167906 0.061051566 -0.0054099374 -0.15865734
0.01219581 0.09243525 0.11914037 -0.05405824 0.16178711 -0.11346622 0.10174358 0.08580183
0.09640607 -0.042216223 -0.041541204 -0.1352399 0.119736575 -0.06963683 -0.16673975 0.024375834
-0.05243366 0.05656142 0.09338502 0.18368062 0.04584578 -0.12101802 0.080256455 -0.043305386
0.16490403 0.021209255 0.18757334 0.12659231 0.19756977 0.051217344 0.1829011 -0.06758143
-0.19701369 0.18121165 -0.18595682 -0.13283418 -0.028920371 0.041023802 -0.062234193 0.11771633
-0.027513102 -0.10268633 -0.046704646 -0.047121536 -0.01577015 -0.10449121 -0.071069956 0.050994787
0.10019732 -0.057100613 -0.0005272262 0.1702187 0.17986865 0.14706533 0.0072616735 0.11903255
-0.019769285 -0.04389033 -0.15421934 -0.18734153 -0.1656479 -0.046601485 0.16783582 0.0036984403
-0.061708882 -0.12476604 0.13240625 -0.1224405 -0.10739252 -0.15638319 -0.015344201 -0.10037293
00000000: ae88 23be 2f17 c03c 1556 ed3d e562 f43d
00000010: 5b58 c8bd bdeb ed3d 01d8 07be 9c23 0f3d
00000020: 4630 ad3b 32e8 0b3e 4bbf 923d 38d6 bc3d
00000030: 15b3 8bbc 08be 3f3e b5f9 9fbc 3125 213e
00000040: ce44 04bd 7dd9 bd3d 46c3 c3bd becb 1e3d
00000050: 328f 253e 3511 7a3d d845 b1bb 1277 22be
00000060: efd0 473c b14e bd3d deff f33d 2c6c 5dbd
00000070: 85ab 253e fa60 e8bd f05e d03d dfb8 af3d
00000080: 8c70 c53d ebea 2cbd 1c27 2abd 547c 0abe
00000090: 7338 f53d c19d 8ebd d3bd 2abe d4af c73c
000000a0: adc4 56bd f3ac 673d a540 bf3d c616 3c3e
000000b0: c9c8 3b3d 4cd8 f7bd 7f5d a43d fd60 31bd
000000c0: 9adc 283e 08bf ad3c 3a13 403e 6aa1 013e
000000d0: bb4f 4a3e 47c9 513d 6d4a 3b3e 2268 8abd
000000e0: f5bd 49be 8c8f 393e 776b 3ebe af05 08be
000000f0: 6aea ecbc 9308 283d 48e9 7ebd 4215 f13d
00000100: 2863 e1bc 364d d2bd 5f4d 3fbd 8302 41bd
00000110: 6730 81bc 7dff d5bd 208d 91bd e9df 503d
00000120: 4134 cd3d 55e2 69bd 8d35 0aba d04d 2e3e
00000130: 7d2f 383e 4b98 163e 55f3 ed3b 56c7 f33d
00000140: 32f3 a1bc 59c6 33bd adeb 1dbe 75d6 3fbe
00000150: 9a9f 29be 33e1 3ebd 27dd 2b3e 8861 723b
00000160: 74c2 7cbd 5685 ffbd 8195 073e 16c2 fabd
00000170: 9cf0 dbbd ea22 20be 3e66 7bbc 5390 cdbd

module.blocks.0.mlp.fc2.weight f4 [24, 96]
-0.017537935 -0.064668946 -0.089193754 -0.020792602 -0.018099062 -0.031123137 -0.00024068015 -0.0019212901
0.058526058 -0.06923925 -0.025147123 0.030985225 0.028733764 0.09038083 -0.102124795 -0.019431086
0.04062776 -0.01875131 -0.061007407 0.025384042 0.076183945 0.022998517 -0.072164044 -0.018930715
0.059068587 -0.007956832 -0.0709526 -0.07589285 0.056344103 0.026632791 -0.08176011 0.04107574
-0.06652894 -0.08448258 -0.034855552 0.068418406 -0.05424511 0.05551658 0.09628613 -0.022709731
-0.11115274 0.08149112 0.10234387 -0.07560443 0.04019842 -0.06176015 0.07077379 -0.004375485
0.06367147 -0.019147815 -0.06228624 0.05509539 0.094169095 -0.007039626 0.12982616 0.022851782
-0.053763613 -0.07225971 -0.04078094 0.0049843467 0.07766068 -0.08652126 0.03456436 -0.120407246
0.057929624 -0.0611891 -0.014955193 0.0744925 0.0035138193 0.020166622 0.058985814 0.035472676
-0.07578443 0.081721336 -0.047565676 0.08453285 -0.0077253794 -0.07255257 -0.06631258 0.049839903
0.070699334 0.087163605 0.09011086 -0.03730373 -0.024676757 0.054161537 -0.035801172 0.0033415628
0.042124126 -0.025820265 -0.07493066 -0.10506711 0.095641196 -0.047502555 0.104329616 -0.023843216
-0.011966796 -0.06015368 0.09476891 0.05522956 0.03886407 -0.030407574 0.025633946 -0.081823885
0.10366491 0.09783441 0.048759624 -0.075747475 -0.09831604 0.060162194 0.0073562395 0.09495199
-0.076901786 0.02636708 -0.088732496 0.11595028 -0.059550006 0.0651271 -0.019427888 0.010390902
0.099338934 -0.021429492 -0.09299221 0.0610636 -0.038779113 0.0006019875 0.14529784 -0.0038386255
-0.06399841 0.027998634 0.06811719 0.037865344 0.046985537 -0.014136955 0.08261568 -0.072919145
-0.027631 -0.08539059 0.0052628587 0.0385186 -0.066152826 -0.034739364 -0.020542948 -0.045264293
0.033201266 -0.090352334 0.013441668 -0.0019610529 -0.079067715 0.04803625 0.062323093 0.017641684
0.0678255 0.08998993 0.015865136 0.08623672 -0.007578095 0.050297916 0.029735347 0.08736753
-0.030562624 -0.09469696 0.08911923 -0.07174044 -0.06515638 0.05461988 0.045660235 -0.033214178
-0.076743186 -0.044552125 0.083761916 -0.01530287 -0.06191999 -0.07342038 -0.0371549 -0.03554227
0.069714345 -0.07317395 -0.07792313 -0.028754706 0.01905269 -0.06978149 0.030757172 0.011904729
-0.09049965 0.088584825 -0.08019272 -0.09321843 0.03081135 -0.045213494 -0.053710043 0.06728584
-0.041451477 0.10141281 0.013485784 -0.059247337 -0.028392928 0.013624757 -0.0843979 -0.046869393
-0.01885851 -0.06979113 -0.012002884 -0.07829116 -0.048396535 0.0008220031 0.085631125 -0.021056425
-0.01133673 0.015392519 0.048527 0.009527401 0.018904628 -0.042404488 -0.048781596 -0.069702804
-0.034977265 -0.06010956 0.015377619 0.057759337 0.0720864 0.027817693 -0.057311025 0.015524775
0.0113351755 0.087654635 -0.06888102 -0.13802539 0.04618738 -0.10089874 -0.04789764 -0.09786837
-0.08218967 0.012357631 -0.06391514 0.053429898 -0.021854801 -0.046327107 0.021825561 0.06476666
-0.0018264775 0.07648901 -0.050803233 -0.048474398 -0.08932287 -0.04309252 -0.008231912 -0.08429804
-0.04483248 0.07494147 0.013275967 -0.013155056 0.011556322 -0.07389687 -0.037626937 -0.019765006
00000000: b7ab 8fbc 2771 84bd 37ab b6bd 3f55 aabc
00000010: 7c44 94bc f3f5 febc 165f 7cb9 ccd3 fbba
00000020: 05b9 6f3d 4fcd 8dbd 5701 cebc bad4 fd3c
00000030: 1263 eb3c 9619 b93d ce26 d1bd f12d 9fbc
00000040: 4b69 263d 599c 99bc e7e2 79bd 32f2 cf3c
00000050: 5406 9c3d 6367 bc3c beca 93bd 9614 9bbc
00000060: e7f1 713d 5f5d 02bc 994f 91bd b66d 9bbd
00000070: 13c9 663d 032d da3c d871 a7bd 093f 283d
00000080: 5340 88bd 3405 adbd b2c4 0ebd f31e 8c3d
00000090: 1f30 5ebd 5a65 633d aa31 c53d c209 babc
000000a0: 0ca4 e3bd d1e4 a63d aa99 d13d 7fd6 9abd
000000b0: 19a7 243d 36f8 7cbd d9f1 903d 3a60 8fbb
000000c0: 3066 823d e1db 9cbc db1f 7fbd b4ab 613d
000000d0: badb c03d aaac e6bb 26f1 043e a933 bb3c
000000e0: 3c37 5cbd e6fc 93bd ea09 27bd bb53 a33b
000000f0: 900c 9f3d 0f32 b1bd 5c93 0d3d 1398 f6bd
00000100: 9d47 6d3d 6ca1 7abd a006 75bc 868f 983d
00000110: 1b48 663b 7934 a53c 1c9b 713d cc4b 113d
00000120: de34 9bbd 845d a73d 3ad4 42bd 8f1f ad3d
00000130: 2e25 fdbb 7196 94bd e4ce 87bd ed24 4c3d
00000140: d0ca 903d d582 b23d 0b8c b83d cccb 18bd
00000150: e926 cabc 7dd8 5d3d 40a4 12bd 1ffe 5a3b
00000160: 598a 2c3d 0585 d3bc 3f75 99bd 6d2d d7bd
00000170: 88df c33d 0a92 42bd c4aa d53d d952 c3bc
00000180: 6110 44bc b563 76bd 3416 c23d 6438 623d
00000190: ee2f 1f3d 4e19 f9bc 48fe d13c 4893 a7bd
000001a0: 454e d43d 685d c83d 2cb8 473d 7e21 9bbd
000001b0: ec59 c9bd a26c 763d 9c0c f13b 3076 c23d
000001c0: af7e 9dbd c6ff d73c 62b9 b5bd 5777 ed3d
000001d0: b5ea 73bd 5b61 853d 3c27 9fbc 9a3e 2a3c
000001e0: 3672 cb3d e78c afbc b372 bebd d31d 7a3d
000001f0: d9d6 1ebd b3ce 1d3a f5c8 143e 7391 7bbb
00000200: 9911 83bd 645d e53c 0681 8b3d b118 1b3d
00000210: e873 403d b09e 67bc 6932 a93d a256 95bd
00000220: 685a e2bc 43e1 aebd 0f74 ac3b aec5 1d3d
00000230: 227b 87bd dd4a 0ebd af49 a8bc 0d67 39bd
00000240: 0dfe 073d a50a b9bd 713a 5c3c 0285 00bb
00000250: 41ee a1bd a9c1 443d 8046 7f3d 4b85 903c
00000260: 19e8 8a3d a44c b83d 9af7 813c e19c b03d
00000270: ab51 f8bb 3005 4e3d 8b97 f33c bfed b23d
00000280: 785e fabc 7bf0 c1bd 2584 b63d a7ec 92bd
00000290: b570 85bd 18b9 5f3d 3a06 3b3d 970b 08bd
000002a0: 882b 9dbd 4a7c 36bd 5e8b ab3d e4b8 7abc
000002b0: d19f 7dbd 6d5d 96bd bd2f 18bd c594 11bd
000002c0: 65c6 8e3d 39dc 95bd 2996 9fbd fd8e ebbc
000002d0: 6314 9c3c 99e9 8ebd 77f6 fb3c 0d0c 433c
000002e0: e157 b9bd f66b b53d 153c a4bd 4ee9 bebd
000002f0: 1668 fc3c c931 39bd 10ff 5bbd 29cd 893d
00000300: 06c9 29bd 85b1 cf3d 7af3 5c3c 56ad 72bd
00000310: 4998 e8bc 5f3a 5f3c ced8 acbd 1ffa 3fbd
00000320: 297d 9abc a7ee 8ebd bfa7 44bc 1e57 a0bd
00000330: 723b 46bd b27b 573a 5f5f af3d 867e acbc
00000340: b1bd 39bc e730 7c3c 3fc4 463d d118 1c3c
00000350: e1dd 9a3c 54b0 2dbd 36cf 47bd 58c0 8ebd
00000360: 5244 0fbd 7135 76bd 69f2 7b3c 0e95 6c3d
00000370: 09a2 933d eee1 e33c f7be 6abd a05b 7e3c
00000380: 2cb7 393c 4684 b33d 7e11 8dbd 8756 0dbe
00000390: fa2e 3d3d 00a4 cebd 5130 44bd 366f c8bd
000003a0: 0f53 a8bd a977 4a3c f1e5 82bd 4fd9 5a3d
000003b0: d708 b3bc 7ec1 3dbd 85cb b23c 62a4 843d
000003c0: 6a66 efba 45a6 9c3d 0d17 50bd 178d 46bd
000003d0: e9ee b6bd c881 30bd 24df 06bc 73a4 acbd
000003e0: 43a2 37bd ea7a 993d 7183 593c 4e88 57bc
000003f0: ba56 3d3c 3e57 97bd b41e 1abd 39ea a1bc

module.blocks.0.mlp.fc2.bias f4 [24]
-0.06176086 -0.03861768 0.10211597 0.052688126 -0.061322417 0.084809884 -0.09919004 0.07962927
0.036994863 -0.052301146 -0.11554328 -0.07760996 -0.0015332024 -0.031022988 -0.10551137 -0.023791084
-0.0471274 0.05914157 0.08329811 -0.0715203 -0.008345912 -0.0014498329 -0.064864755 -0.06770592
00000000: f5f8 7cbd 932d 1ebd 2d22 d13d 81cf 573d
00000010: 372d 7bbd ceb0 ad3d 2624 cbbd ac14 a33d
00000020: ed87 173d ba39 56bd f5a1 ecbd f9f1 9ebd
00000030: bcf5 c8ba ec23 febc 5816 d8bd 85e5 c2bc
00000040: a908 41bd 6e3e 723d 3398 aa3d 3c79 92bd
00000050: 4bbd 08bc 5208 beba d0d7 84bd 67a9 8abd

module.blocks.1.norm1.weight f4 [24]
1.0559527 1.0862157 0.953448 0.9717515 0.9913039 1.0242839 0.97502524 1.0171362
0.9711647 0.99129033 1.0159777 0.9343954 0.9713808 0.9771175 1.0023963 0.98337865
0.97484046 0.9886286 0.9961352 1.0100254 0.9949956 0.9886586 1.0145422 1.0095463
00000000: 7529 873f 1e09 8b3f 2b15 743f b5c4 783f
00000010: 18c6 7d3f bc1b 833f 419b 793f 8531 823f
00000020: 409e 783f 34c5 7d3f 8f0b 823f 8934 6f3f
00000030: 69ac 783f 5f24 7a3f 864e 803f b4be 7b3f
00000040: 258f 793f c416 7d3f b702 7f3f 8348 813f
00000050: 08b8 7e3f bb18 7d3f 85dc 813f d038 813f

module.blocks.1.norm1.bias f4 [24]
-0.015088797 0.0105546145 0.010012539 -0.015158163 0.011550925 -0.0041753547 -0.0020034988 0.00884929
-0.018438691 0.016550077 0.016580794 0.034320395 -0.0034562377 -0.013237068 -0.004169881 0.005367494
0.019401295 -0.016648684 -0.009606895 0.0048874156 0.018003166 0.008831124 0.0075528873 -0.012007298
00000000: 0037 77bc 43ed 2c3c a20b 243c f259 78bc
00000010: 1740 3d3c 6ad1 88bb 224d 03bb 9dfc 103c
00000020: bd0c 97bc 0794 873c 72d4 873c 8b93 0c3d
00000030: 0c82 62bb 4ae0 58bc 7fa3 88bb cee1 af3b
00000040: 77ef 9e3c d262 88bc 3d66 1dbc 9d26 a03b
00000050: 607b 933c 6bb0 103c 367e f73b 42ba 44bc

module.blocks.1.attn.qkv.weight f4 [72, 24]
0.091109924 0.21634495 0.16451697 0.111732274 0.00946756 0.10947686 0.08491286 -0.04521662
-0.055606313 0.07028214 0.09802747 -0.06843007 0.08503087 0.17611769 0.15640219 -0.22428887
0.07327645 -0.18402402 0.106226616 0.06635476 0.19034211 0.15137933 0.16243958 0.01131883
-0.013385985 -0.054126676 0.11482788 -0.037832152 0.19143166 0.09844628 0.18127379 -0.122993916
-0.15068063 -0.12980685 -0.054431144 0.13509142 -0.15116435 0.1836644 -0.13612877 -0.20119047
0.2190897 -0.006614812 -0.024509639 -0.09660849 0.0008096384 0.15654868 -0.08412911 0.036076374
-0.19836996 -0.14261189 0.1911061 -0.18425171 0.20557013 -0.050350364 -0.08057878 0.20375799
0.023109132 -0.08752067 -0.23029935 0.22358738 -0.20864913 0.0894199 -0.102855965 0.17330529
-0.03489074 0.13584265 -0.13094765 0.08072519 -0.086665444 -0.068084575 -0.25228962 -0.1543821
0.042661503 -0.17551944 -0.05934502 0.09552866 0.20830633 -0.17305526 -0.08478112 0.13890228
0.06299678 0.04248676 0.09151225 -0.058689196 -0.14059962 0.07817041 -0.2561121 -0.052355357
-0.06699105 -0.026113315 -0.2171906 -0.1285554 -0.14501248 -0.08182614 -0.12181901 0.07909343
0.18794328 -0.00041941385 0.18012764 -0.18902215 -0.1293619 -0.06868123 -0.1111067 -0.19429132
-0.15144946 0.112205796 0.16138573 -0.17528966 0.09841615 0.005292801 0.21156965 -0.13393965
-0.18768683 -0.14548136 0.1472211 0.031122636 -0.13948303 -0.11499239 -0.013912415 -0.019285046
0.14457469 -0.07040545 0.12455988 -0.016725335 0.06660797 0.051327944 -0.065226324 -0.1421847
-0.08318102 -0.005757886 0.12176086 -0.036185365 0.08366474 0.19133054 0.13718891 0.018132824
0.11428878 -0.08031617 -0.12433112 0.12542437 -0.1309788 0.13926084 -0.10997018 0.16714978
0.053012542 -0.17842494 -0.049225427 -0.071858406 0.20235983 -0.21061535 0.04307271 0.017326867
0.10506886 -0.07889666 -0.15967135 -0.04735287 -0.18925364 0.009737758 0.04661554 0.10240453
0.091488376 0.019207826 -0.25786465 -0.20952749 -0.27859348 0.20087068 0.042739384 0.09878172
-0.19189148 0.09503059 0.15738226 -0.12342019 0.11342633 0.12556073 -0.06222353 -0.16961831
0.09434961 0.061287086 -0.040907975 -0.047581803 -0.04249286 0.026122341 -0.14367758 -0.14672796
-0.03227501 -0.16689703 0.18427764 -0.049277034 -0.20220162 -0.11073091 -0.1810443 -0.14070962
-0.18005309 -0.05507769 -0.2335741 -0.045487523 -3.117481e-05 0.13391262 -0.09620532 -0.017143853
0.037861142 0.19773787 -0.14111765 -0.033905156 -0.1737208 0.04905763 -0.12015204 -0.03345405
-0.1216921 0.044764616 -0.041420944 -0.04378207 -0.07787674 0.1629657 -0.22945325 0.026325643
-0.15048021 -0.11809017 0.24274035 -0.0882515 -0.18267635 0.19269508 -0.022246297 -0.22661531
0.07211667 0.09971148 0.072372966 0.011764738 -0.10568647 -0.16023336 0.16417693 -0.17796735
0.040308006 0.053044096 -0.045808744 -0.14907943 0.22401573 0.12962443 0.01977704 -0.18030101
0.036695216 0.024275826 -0.047774434 -0.12469025 0.064546145 -0.14851336 0.033543803 -0.14175165
-0.046133813 0.056740005 -0.011424254 -0.21825765 -0.08032325 0.059838437 0.06531469 -0.023223726
00000000: d797 ba3d 8889 5d3e 2377 283e e4d3 e43d
00000010: d31d 1b3c 6735 e03d cbe6 ad3d 1035 39bd
00000020: 72c3 63bd 15f0 8f3d a0c2 c83d 1125 8cbd
00000030: aa24 ae3d 3258 343e e527 203e fbab 65be
00000040: f711 963d cb70 3cbe 578d d93d 01e5 873d
00000050: 0be9 423e 2f03 1b3e 9056 263e 9d72 393c
00000060: e450 5bbc efb3 5dbd e12a eb3d e3f5 1abd
00000070: a906 443e 349e c93d d69f 393e 3ce4 fbbd
00000080: 064c 1abe 16ec 04be 31f3 5ebd 6855 0a3e
00000090: d4ca 1abe 8512 3c3e 5765 0bbe e004 4ebe
000000a0: 0d59 603e 11c1 d8bb 70c8 c8bc acda c5bd
000000b0: ea3d 543a 4c4e 203e e24b acbd d2c4 133d
000000c0: 7f21 4bbe da08 12be 51b1 433e 7bac 3cbe
000000d0: fa80 523e 2f3c 4ebd 7d06 a5bd efa5 503e
000000e0: 5d4f bd3c 093e b3bd 98d3 6bbe 17f4 643e
000000f0: 1ea8 55be c821 b73d 26a6 d2bd f176 313e
00000100: 98e9 0ebd 561a 0b3e 2417 06be 4053 a53d
00000110: a77d b1bd ed6f 8bbd 1b2c 81be 5716 1ebe
00000120: d4bd 2e3d 5ebb 33be c413 73bd 88a4 c33d
00000130: 414e 553e 6635 31be b9a1 adbd 663c 0e3e
00000140: 7504 813d 9906 2e3d c66a bb3d 1564 70bd
00000150: 59f9 0fbe cf17 a03d 2021 83be 9272 56bd
00000160: 9b32 89bd 97eb d5bc 3667 5ebe 07a4 03be
00000170: 277e 14be 7794 a7bd 3f7c f9bd bcfb a13d
00000180: 3474 403e c6e4 dbb9 6173 383e 068f 41be
00000190: 7277 04be bfa8 8cbd e98b e3bd 4ef4 46be
000001a0: 9115 1bbe 27cc e53d 4d42 253e 227f 33be
000001b0: 688e c93d 3c6f ad3b b7a5 583e 7a27 09be
000001c0: fa30 40be 11f9 14be 21c1 163e e6f4 fe3c
000001d0: a4d4 0ebe 2181 ebbd e6f0 63bc acfb 9dbc
000001e0: 630b 143e bc30 90bd 4019 ff3d 9203 89bc
000001f0: c269 883d 403d 523d 6195 85bd de98 11be
00000200: d05a aabd a6ac bcbb c25d f93d 1b37 14bd
00000210: 6b58 ab3d 27ec 433e 407b 0c3e 4a8b 943c
00000220: 3c10 ea3d ce7c a4bd 50a1 febd 3f6f 003e
00000230: 4e1f 06be 659a 0e3e 0c38 e1bd 5029 2b3e
00000240: ae23 593d 07b5 36be 9aa0 49bd 802a 93bd
00000250: 6a37 4f3e 8dab 57be 036d 303d 13f1 8d3c
00000260: 582e d73d 9294 a1bd e380 23be 15f5 41bd
00000270: b5cb 41be 1e8b 1f3c f0ef 3e3d 77b9 d13d
00000280: 425e bb3d bb59 9d3c d606 84be 608e 56be
00000290: cea3 8ebe 0bb1 4d3e 7e0f 2f3d 124e ca3d
000002a0: 337f 44be 669f c23d d128 213e b9c3 fcbd
000002b0: 104c e83d fe92 003e 1ade 7ebd 6cb0 2dbe
000002c0: 5e3a c13d 2b08 7b3d 1f8f 27bd 23e5 42bd
000002d0: fe0c 2ebd 85fe d53c 3720 13be db3f 16be
000002e0: cd32 04bd 0ee7 2abe 47b3 3c3e b7d6 49bd
000002f0: f10d 4fbe e3c6 e2bd ad63 39be 2f16 10be
00000300: d65f 38be 2599 61bd 0d2e 6fbe 2051 3abd
00000310: b3c1 02b8 6420 093e 4b07 c5bd 4471 8cbc
00000320: 4914 1b3d cc7b 4a3e 2581 10be 22e0 0abd
00000330: dee3 31be a7f0 483d 4612 f6bd 1d07 09bd
00000340: b539 f9bd 1a5b 373d 02a9 29bd d454 33bd
00000350: d77d 9fbd 7be0 263e cbf5 6abe e0a8 d73c
00000360: 7c17 1abe 42d9 f1bd ed90 783e 34bd b4bd
00000370: 820f 3bbe dc51 453e de3d b6bc d80d 68be
00000380: e8b1 933d 8835 cc3d 4738 943d e3c0 403c
00000390: 2672 d8bd 3714 24be ff1d 283e 133d 36be
000003a0: 021a 253d c444 593d f3a1 3bbd 47a8 18be
000003b0: 6164 653e 44bc 043e 7603 a23c d4a0 38be
000003c0: b94d 163d 19de c63c 20af 43bd 9a5d ffbd
000003d0: c530 843d e313 18be 3a65 093d 5827 11be
000003e0: cff6 3cbd 3568 683d cb2c 3bbc ef7e 5fbe
000003f0: 8480 a4bd 2619 753d b5c3 853d af3f bebc
